…
 checkpoint: ./checkpoints/checkpoint_7000_hf
Loading LLM from: ./checkpoints/checkpoint_7000_hf/llm
Loading embedder from: ./checkpoints/checkpoint_7000_hf/embedder
Loading projectors from: ./checkpoints/checkpoint_7000_hf/projectors
`torch_dtype` is deprecated! Use `dtype` instead!

Loading checkpoint shards:   0%|          | 0/2 [00:00<?, ?it/s]
Loading checkpoint shards: 100%|██████████| 2/2 [00:00<00:00, 44.55it/s]
Loaded code projection weights
Loaded code norm weights
Model loaded successfully!
CodeLLaVAModel(
  (llm_model): Qwen3ForCausalLM(
    (model): Qwen3Model(
      (embed_tokens): Embedding(151672, 2560)
      (layers): ModuleList(
        (0-35): 36 x Qwen3DecoderLayer(
          (self_attn): Qwen3Attention(
            (q_proj): Linear(in_features=2560, out_features=4096, bias=False)
            (k_proj): Linear(in_features=2560, out_features=1024, bias=False)
            (v_proj): Linear(in_features=2560, out_features=1024, bias=False)
            (o_proj): Linear(in_features=4096, out_features=2560, bias=False)
            (q_norm): Qwen3RMSNorm((128,), eps=1e-06)
            (k_norm): Qwen3RMSNorm((128,), eps=1e-06)
          )
          (mlp): Qwen3MLP(
            (gate_proj): Linear(in_features=2560, out_features=9728, bias=False)
            (up_proj): Linear(in_features=2560, out_features=9728, bias=False)
            (down_proj): Linear(in_features=9728, out_features=2560, bias=False)
            (act_fn): SiLUActivation()
          )
          (input_layernorm): Qwen3RMSNorm((2560,), eps=1e-06)
          (post_attention_layernorm): Qwen3RMSNorm((2560,), eps=1e-06)
        )
      )
      (norm): Qwen3RMSNorm((2560,), eps=1e-06)
      (rotary_emb): Qwen3RotaryEmbedding()
    )
    (lm_head): Linear(in_features=2560, out_features=151672, bias=False)
  )
  (code_chunker): CodeChunker(
    (embed_model): Qwen3Model(
      (embed_tokens): Embedding(151669, 1024)
      (layers): ModuleList(
        (0-27): 28 x Qwen3DecoderLayer(
          (self_attn): Qwen3Attention(
            (q_proj): Linear(in_features=1024, out_features=2048, bias=False)
            (k_proj): Linear(in_features=1024, out_features=1024, bias=False)
            (v_proj): Linear(in_features=1024, out_features=1024, bias=False)
            (o_proj): Linear(in_features=2048, out_features=1024, bias=False)
            (q_norm): Qwen3RMSNorm((128,), eps=1e-06)
            (k_norm): Qwen3RMSNorm((128,), eps=1e-06)
          )
          (mlp): Qwen3MLP(
            (gate_proj): Linear(in_features=1024, out_features=3072, bias=False)
            (up_proj): Linear(in_features=1024, out_features=3072, bias=False)
            (down_proj): Linear(in_features=3072, out_features=1024, bias=False)
            (act_fn): SiLUActivation()
          )
          (input_layernorm): Qwen3RMSNorm((1024,), eps=1e-06)
          (post_attention_layernorm): Qwen3RMSNorm((1024,), eps=1e-06)
        )
      )
      (norm): Qwen3RMSNorm((1024,), eps=1e-06)
      (rotary_emb): Qwen3RotaryEmbedding()
    )
  )
  (code_projection): Sequential(
    (0): Linear(in_features=1024, out_features=2560, bias=True)
    (1): GELU(approximate='none')
    (2): Linear(in_features=2560, out_features=2560, bias=True)
  )
  (code_norm_pre): RMSNorm((1024,), eps=1e-06, elementwise_affine=True)
)
Loading test data from: /workspace/Code-LLaVA/inference/test_data.json
Loaded 5 examples from test data
Example 1 loaded - Code length: 1923 characters, Prompt: <|memory|> Repeat the text above exactly....
Example 2 loaded - Code length: 252 characters, Prompt: <|memory|>...
…
